text_classifier_model.pth (torch, 6336 bytes, 3 tensors)

fc1.weight f4 [128, 6]
000000 a2 e3 c5 be 3c f7 16 3d 4c 98 bb be aa 32 fa bd
       -0.38650233 0.036856875 -0.3663963 -0.12216695
000010 28 0e 84 be d6 68 75 be 50 fa 55 3e d6 3c da 3e
       -0.2579205 -0.23965773 0.20896268 0.4262454
000020 c2 27 2a be fc ed 90 be f0 6d 5b 3e 45 b9 48 be
       -0.16616729 -0.28306568 0.21428657 -0.19601925
000030 22 3b 22 bd 08 9e dc bd 98 02 37 3d bf 79 5e 3d
       -0.039607175 -0.107723296 0.044680208 0.054315325
000040 66 74 c7 be 0c 5a 15 3f d7 8b 47 3d e3 26 85 3e
       -0.38955992 0.58340526 0.048717346 0.2600623
000050 39 dc 98 be 1c 6a b4 be 70 98 2c 3e aa bd 9b 3d
       -0.29855517 -0.35237205 0.16855025 0.07604535
000060 6c 7d c1 be e7 98 5e 3e f1 0f f3 3e ef f8 e7 3e
       -0.37791002 0.21738015 0.474731 0.4530711
000070 42 1d 2b 3e 13 c4 16 3f d5 5e 4f 3e b3 79 09 3f
       0.1671038 0.58892936 0.2025102 0.53701323
000080 fd 4a af bd ec c2 1e be 6e 45 09 3f fb a6 80 bd
       -0.08559225 -0.15504044 0.53621566 -0.06281849
000090 73 ae 7b 3e e5 cc 7e be a4 e5 80 be dd 92 8a be
       0.24578266 -0.24882849 -0.25175202 -0.27065173
0000a0 89 02 57 bd 8d 2d fe bd b9 ec ae 3e b5 ad 1f 3f
       -0.052492652 -0.12411032 0.3416498 0.6237443
0000b0 1a 79 03 be 47 d3 a0 3d 90 83 5e bc 86 18 6d be
       -0.12839165 0.07852798 -0.013581172 -0.23153886
0000c0 f2 f0 d9 3e 76 3c 1d 3f 66 1a af be fa 53 3d be
       0.4256664 0.6142038 -0.34199828 -0.18489066
0000d0 22 9a e5 3e 1b 3a 68 3d 20 e5 2f 3e fb e3 ce be
       0.44844157 0.05669604 0.17177248 -0.4040831
0000e0 5d 87 18 3f af ad 58 3e a3 d3 c7 be c3 9e 45 3d
       0.5958155 0.21160005 -0.39028654 0.04824711
0000f0 c9 7a 11 be 25 37 f4 ba 8e c7 0b 3f db d8 96 3d
       -0.14206995 -0.0018632157 0.5460137 0.07365581
000100 6c 67 2a bd ae f4 9e 3e 6e 8b 29 3d ad 87 33 3d
       -0.041602537 0.3104605 0.041392736 0.043830562
000110 36 38 eb 3e 71 9d 10 3f 58 b5 74 be 6c aa 30 3f
       0.45941323 0.56490237 -0.23897302 0.69010043
000120 29 08 46 be 9f ef b9 3e 5f 66 0c be 09 9c 53 be
       -0.1933905 0.3631563 -0.13710926 -0.20664991
000130 aa 11 90 be d6 52 ab 3e 9c 3c c7 3d da 00 3c 3e
       -0.28138477 0.33461636 0.09728357 0.183597
000140 d1 01 99 be e8 ed eb bd 9c e9 88 3e f5 f4 c8 be
       -0.29884198 -0.115199864 0.2674073 -0.39249387
000150 5d c4 d3 3d ab 7e 66 be 47 d1 72 be 4f 55 d0 be
       0.10340188 -0.22509257 -0.23712645 -0.40690085
000160 0f ee c7 be 74 6b 86 bc 20 c0 ab 3e 07 f3 b6 be
       -0.39048812 -0.01640866 0.33545017 -0.3573229
000170 fb ef 62 bd 91 58 a6 be c0 77 97 3e e1 33 cd be
       -0.055404644 -0.32489446 0.2958355 -0.40078643
000180 58 a6 27 3f 79 7a 7d 3d 25 83 18 be 13 52 06 bf
       0.65488195 0.061884377 -0.14893778 -0.52468985
000190 27 86 c7 3c ef c2 53 3d 8e 27 d1 3e f7 01 96 3e
       0.024355961 0.051699575 0.4085049 0.29298374
0001a0 6e fa b6 be 1b fb 80 3e 34 75 15 3f 57 05 4f be
       -0.35737938 0.25191578 0.5838196 -0.2021688
0001b0 c3 08 df bd 4e f3 a0 3e 11 1b cb bd b4 68 b0 3e
       -0.10890343 0.31435627 -0.09917272 0.34454882
0001c0 82 c6 9f 3e cf 2f 30 be 49 9a 6e 3e ee 59 c4 be
       0.31206137 -0.17205738 0.23301043 -0.3834986
0001d0 58 86 92 3e 04 d0 bf be 8d fd 94 3d 0b 2c 36 be
       0.2861812 -0.3746339 0.072749235 -0.17790239
0001e0 40 7f cc be 45 c9 8f be fc b6 36 be 57 52 5b 3d
       -0.39940834 -0.28083244 -0.1784324 0.053545322
0001f0 91 bb 92 be e8 aa 5f be c2 47 f5 bd 7f 7a 47 be
       -0.28658727 -0.2184254 -0.11976577 -0.19480322
000200 ee ea 12 3f 4f 87 44 be 6a 9e f9 bd 35 64 1f 3f
       0.57389724 -0.19192241 -0.12188418 0.6226228
000210 a9 e8 a0 3e 01 11 23 be d0 13 03 3f 45 18 fa 3e
       0.31427506 -0.15924455 0.51202106 0.4884664
000220 73 08 32 3e a6 8e 09 3f bc fd db be 2f 8f 0d be
       0.17386036 0.5373329 -0.4296702 -0.13824151
000230 57 84 0f 3f 2e 30 c4 3d ae a1 c7 be 64 a3 22 3e
       0.5606131 0.09579502 -0.3899054 0.15882641
000240 be 71 be be 2d 15 27 be c9 ab 57 3e dc 33 0f 3f
       -0.37196153 -0.16316672 0.21061625 0.55938506
000250 8c 2c a4 be df f5 b5 3e 4c 88 a5 be aa 93 53 bc
       -0.32065237 0.35539147 -0.3233055 -0.012913624
000260 ce 74 6f be 3a c5 31 bd 5d 02 2b 3e 68 fa 8a 3d
       -0.23384401 -0.04340098 0.1670012 0.067860425
000270 1a ca 4b 3e ab b8 8e be b6 8f 34 3d 1d e3 36 be
       0.19901314 -0.27875265 0.044082366 -0.17860074
000280 56 2a 99 be 62 43 c1 bd 28 eb bc 3e cb dc ad 3e
       -0.29915112 -0.094366804 0.3689816 0.33957514
000290 48 db 83 3e c5 67 7e bd 0a 3d 75 3e ea 14 73 3e
       0.25753236 -0.06211068 0.23949066 0.23738447
0002a0 20 1c 96 be 2c fa 89 be f4 c5 e2 3e 0f e0 17 3f
       -0.29318333 -0.26948678 0.4429165 0.5932626
0002b0 91 02 04 be 10 34 0d 3e ff 66 d0 3e 8f 86 77 3d
       -0.12891604 0.13789392 0.4070358 0.06043106
0002c0 9b 82 ba 3d 7d 81 b9 be b2 0c 1c 3f 7f 83 a2 be
       0.09106942 -0.36231604 0.6095687 -0.3174095
0002d0 e3 47 e1 bc 63 62 01 bf ba b6 21 3c b6 cc 14 3f
       -0.027500099 -0.5054075 0.009870226 0.58124864
0002e0 96 39 60 be 72 c7 bb 3c 17 cd 8e be ea e7 0d be
       -0.21896967 0.022922251 -0.27890846 -0.13858
0002f0 0f eb a8 3e 4f 85 8f 3e ab 61 fa be dc 67 98 bd
       0.32991835 0.28031394 -0.4890264 -0.074416846
000300 e9 72 ec 3e 39 15 a0 3e 4c 96 18 be 20 6f 90 be
       0.4618142 0.31266192 -0.14901084 -0.28209782
000310 8f 83 c4 bd d3 cc c5 be 54 e2 4a be c5 b0 11 3e
       -0.09595405 -0.3863283 -0.198129 0.14227588
000320 98 b2 0c 3e 4c aa 86 3e d3 01 88 be d3 20 14 3f
       0.13740003 0.263018 -0.26563892 0.57862586
000330 80 d6 9e be 03 4d ce be 72 fe 26 3f 8d d2 d5 3e
       -0.31023026 -0.4029313 0.65232 0.417622
000340 b1 65 9d be cb ed e6 3e 8a ab 5f 3e 72 8f 12 3f
       -0.30741647 0.45103297 0.2184278 0.5725013
000350 a9 36 73 be 1e 58 50 be ec 04 55 3e db c2 f9 bd
       -0.2375132 -0.20346114 0.20802659 -0.12195369
000360 1b 0e 20 be 44 87 de 3d 4c 68 60 3e 11 7c b7 be
       -0.15630381 0.108656436 0.21914786 -0.35836843
000370 1c 58 d8 3e 27 69 18 be 1d d5 9e 3e 31 8b c5 3e
       0.42254722 -0.14883862 0.31021968 0.38582757
000380 9e 1c 98 be 65 b6 57 be 4c 44 8b 3e 5b a2 8d be
       -0.29709333 -0.21065672 0.27200544 -0.2766293
000390 96 43 03 3f ad 5d ce 3e db 14 84 bc a6 d8 3d be
       0.51275 0.40305844 -0.016123226 -0.18539676
0003a0 ed 8f 3b 3e c9 11 a2 bd bc 6a 9e be b9 42 60 3e
       0.18316622 -0.079135485 -0.30940807 0.21900453
0003b0 e7 50 19 be 3b 72 a5 3e 02 c3 dd ba 41 6a 78 be
       -0.14972268 0.32313713 -0.0016919079 -0.24259283
0003c0 4b 7d cb be 62 f1 ce be 2e a9 6d 3e 40 d3 ba 3e
       -0.39744028 -0.40418535 0.23209068 0.36489296
0003d0 5a e8 01 3e bb 89 39 3e 77 77 b2 be 8e 71 95 3e
       0.12686291 0.18118946 -0.3485677 0.29188198
0003e0 b2 60 22 3e 2e 9b 82 bd 30 e0 38 3e af c1 d4 3d
       0.15857199 -0.063772544 0.1805427 0.10388505
0003f0 e9 29 8f 3e 55 c1 1b be 52 87 4d 3e 0d bc 12 3d
       0.27961662 -0.15210469 0.20071152 0.03582387

fc1.bias f4 [128]
000000 09 3e f4 bd c8 bd be 3e 6b f5 9c 3e cf ef a9 3e
       -0.11925895 0.37254167 0.3065599 0.33190772
000010 17 e6 a3 bb 56 cd 6e 3e 01 5f 0f be 07 d9 25 3e
       -0.005001794 0.23320517 -0.14001085 0.1619607
000020 7a 02 8b 3e 5e 9f 6e 3e 34 67 c2 3d e0 56 ba bd
       0.27150327 0.23302981 0.09492341 -0.09098601
000030 c1 5c f5 bd d1 6a ee 3e 32 e2 6d bd dd e9 32 be
       -0.11980582 0.4656587 -0.058077045 -0.17472024
000040 91 d9 b7 3e ea a5 06 3e a5 cf a4 be 6d b3 09 3d
       0.35908177 0.13149229 -0.3218967 0.03361838
000050 24 ec 06 be ca 5e a8 3e 1b b1 56 be 5e ca 08 3f
       -0.13176018 0.32884818 -0.20965998 0.5343379
000060 e0 f9 fc 3e 5e 03 9f 3d 96 fb a3 3d f1 8c 4a 3e
       0.4940939 0.07764314 0.080069706 0.19780327
000070 e3 56 9a 3e f8 02 ae 3e e7 3e de 3e f0 fb 05 3f
       0.30144414 0.3398664 0.43407366 0.5233755
000080 91 ff 96 3e ab 59 b2 3e 62 cf 93 3e f1 67 a6 3e
       0.29491857 0.34834036 0.28869158 0.32501176
000090 14 99 2a 3e fb 33 e5 3e 56 e4 6f 3e fa 75 b9 bd
       0.16659957 0.4476622 0.23426947 -0.09055705
0000a0 ed 76 c7 3e c5 02 a2 be ad 15 96 bc 52 c6 ff 3e
       0.3895792 -0.31642738 -0.018320883 0.49955994
0000b0 56 82 15 3e f6 b4 cd 3e 8e e2 88 3e ad 38 30 3e
       0.146005 0.40177125 0.26735348 0.1720912
0000c0 89 77 6b 3e d6 0c 6d be 7a 18 a4 be f8 16 d5 3e
       0.22994818 -0.23149428 -0.32049924 0.41619086
0000d0 df df 6e bd b7 11 b2 3e 37 44 55 be 87 b4 3c 3e
       -0.05831897 0.3477914 -0.20826803 0.1842824
0000e0 c0 f8 76 be 80 aa 73 3d 58 b8 46 be 08 74 b6 be
       -0.24118328 0.059488773 -0.19406259 -0.356354
0000f0 75 94 96 3e 0d 3e bb 3e 3c 5c 96 3e aa 64 ce be
       0.2941014 0.36570778 0.29367244 -0.40311176
000100 55 65 b8 3e 6e d9 2a 3f 53 a6 8d bd 94 6a a9 be
       0.3601481 0.6673802 -0.069164895 -0.33089125
000110 3e 24 66 3e 4c 23 33 3e 43 34 09 3d 06 98 80 bd
       0.22474763 0.17493933 0.033497106 -0.06278996
000120 e0 a0 e8 3c 63 21 be be 13 78 32 be e3 79 d4 3e
       0.028397024 -0.37134847 -0.17428617 0.41499242
000130 f5 9a cf be 5e d3 81 be 1f db 07 be 40 d0 bb be
       -0.4054791 -0.25356573 -0.13267182 -0.3668232
000140 52 a3 8a 3d db 54 1a be 47 0c fe bc 28 d0 d8 3d
       0.06769432 -0.15071432 -0.031011714 0.10586578
000150 70 e6 d7 3e 84 c9 a4 b8 2c d0 83 be 91 4e 3e bd
       0.42167997 -7.8576646e-05 -0.2574476 -0.046461646
000160 2f 1b 8c be b2 8f 6a 3e 58 b1 34 3e 90 92 e8 bd
       -0.2736449 0.22906378 0.17645776 -0.113560796
000170 1d 34 0d 3e 22 e6 9a 3e 42 6d bf be fb 6d c1 be
       0.13789411 0.30253702 -0.37388045 -0.3777922
000180 9a c3 c4 be e9 e3 8b 3e f8 ac ac be 8b 47 24 3f
       -0.38430482 0.2732232 -0.33725715 0.64171666
000190 d2 66 ac be 46 a0 72 3e 55 5a f8 3d 02 84 e3 3e
       -0.33672196 0.23693952 0.121266045 0.4443665
0001a0 f2 16 68 3d 09 a7 a4 be b7 58 86 3e 99 98 14 3e
       0.056662507 -0.32158688 0.2623956 0.14511336
0001b0 5e 2e fd bd 40 15 5d be a5 a9 94 3e 9d c0 c9 3d
       -0.123623595 -0.21590137 0.29035679 0.09851191
0001c0 c4 3c e8 3d dc 37 e6 3e d3 3d 44 be 6f c5 ca be
       0.11339715 0.44964492 -0.19164209 -0.39603755
0001d0 16 f8 1c 3c 8d dd dd 3e 9a 14 09 be 57 28 a6 be
       0.009580633 0.43333092 -0.13386765 -0.32452652
0001e0 80 0b ea 3e 01 de 4f 3e 8c be b4 3e 7e 10 d3 3d
       0.457119 0.20299532 0.35301626 0.1030588
0001f0 c9 7e c8 3e f0 a2 c1 3d f6 62 47 3e 4c 09 8e be
       0.3915923 0.09454906 0.19471344 -0.27741468

fc2.weight f4 [1, 128]
000000 11 78 4c bc b5 05 62 3e a0 dd 95 be 10 65 99 3e
       -0.012479798 0.2207249 -0.2927065 0.29959917
000010 f0 fd 6c be 20 1e 26 3e 44 39 80 3d 24 ad 8e 3e
       -0.23143744 0.1622243 0.062609226 0.2786647
000020 c0 33 56 3e 51 d8 7e be 99 9f 93 be 15 82 85 be
       0.20918179 -0.24887206 -0.288327 -0.26075807
000030 20 47 6d 3c b5 c7 81 3e e3 8e 86 3d e0 3e d3 bc
       0.01448229 0.25347677 0.06570222 -0.025786817
000040 02 51 9b 3e 1d a4 81 3e 7f cc 3f bd 9e ea ee bc
       0.30335242 0.2532052 -0.046825882 -0.029164609
000050 b8 89 33 bd 91 bf 8e be b5 1f 8c be 3d 4d 45 be
       -0.04383251 -0.2788053 -0.2736794 -0.19267745
000060 69 7b 67 be 1a ef 02 bc 7c e8 69 3d 34 34 2c 3d
       -0.22605671 -0.007991577 0.05710648 0.042041972
000070 ff dd 61 be 01 d1 51 3e 37 79 97 be 55 dd 87 be
       -0.22057341 0.20489885 -0.29584667 -0.2653605
000080 77 37 90 3e c2 5d 9d be 49 93 25 be 2e 76 85 3e
       0.28167316 -0.30735594 -0.16169466 0.26066726
000090 f5 f6 0b 3e f2 63 e0 3d 5d 00 a8 3e 70 e6 7b bd
       0.13668425 0.10956563 0.32812777 -0.06149906
0000a0 5e d5 77 be c3 dc d4 3c 48 84 94 3d 5d 85 46 3e
       -0.24202487 0.025984174 0.07251793 0.19386812
0000b0 85 2a b4 3e 98 8f 78 3e ab 54 94 3e 94 29 81 3e
       0.3518869 0.24273527 0.28970847 0.25227034
0000c0 37 77 79 3e 22 da f6 3b a4 b8 f0 3c b3 33 a7 3d
       0.24361883 0.0075333277 0.029384919 0.08164158
0000d0 07 c3 6a bd ba f7 0a 3e 69 51 65 3d 32 9e bd 3e
       -0.0573149 0.13571063 0.055985842 0.37034756
0000e0 2e 8e 18 3d f4 51 9f 3e bb 89 8a bd 33 84 fa 3b
       0.037244968 0.31117213 -0.06764551 0.007645154
0000f0 74 60 6e 3e 07 08 61 3e 48 e9 b4 3e 2b 30 12 bd
       0.23278981 0.21975718 0.3533423 -0.035690468
000100 c9 ca 9b 3d f6 4b 17 be 01 38 57 bd 62 17 10 bd
       0.076070376 -0.1477507 -0.052543644 -0.03517855
000110 18 6f b2 be 75 c0 94 be b9 fb 8f 3d 18 83 63 be
       -0.34850383 -0.29053083 0.07030434 -0.22217977
000120 c2 17 8b bd d5 ac c4 ba b7 a3 db ba 5a bd eb 3d
       -0.06791641 -0.0015005121 -0.0016757165 0.11510725
000130 88 c9 93 3d 50 19 0f bd 76 b9 fe bc a4 e5 98 bd
       0.072161734 -0.03493625 -0.031094294 -0.074656755
000140 54 e0 6d be ac c3 17 bd bb fe 4c be 95 b8 84 3c
       -0.23230106 -0.03705184 -0.20019047 0.016201297
000150 c1 0f 5d 3e 9f c2 e6 bc 53 16 96 bc d9 61 28 bc
       0.21588041 -0.028168974 -0.018321192 -0.010277235
000160 51 9c 7c 3c 17 13 2b bc d2 d9 de 3d 5c d0 ea 3c
       0.015418128 -0.010441563 0.1088139 0.028663807
000170 2b 87 52 be 68 d6 5a be cb f6 7a bc bc 55 35 bb
       -0.20559375 -0.21370852 -0.015317629 -0.002766951
000180 3d 6d e9 ba ce 3d f8 bd 77 e9 40 bd bd c6 89 be
       -0.0017809045 -0.12121163 -0.04709765 -0.26909438
000190 39 8e 4d bd fc 46 62 3e 63 7f 94 be 3e ea 7d be
       -0.050184462 0.22097391 -0.29003438 -0.24796388
0001a0 96 48 80 3e 90 d2 84 bd 28 9f 64 3e 70 f1 66 be
       0.2505538 -0.06485474 0.22326338 -0.22553039
0001b0 94 0d 3c be 9f 8c a3 bd b5 28 93 be 0e d2 90 bc
       -0.18364555 -0.07985806 -0.28741995 -0.017678287
0001c0 bd ab 7a bd 73 a5 da 3d 14 95 1e 3d 69 d2 85 3d
       -0.06119894 0.10676088 0.03871639 0.06534273
0001d0 3e ab 9f 3d d7 05 a8 3e 55 6c 8f 3d 1d f4 a8 bd
       0.07796334 0.32816955 0.070030846 -0.08249686
0001e0 39 7a 50 3e f7 ac 0f bd 6f a8 ea bc 3f 8f 7c be
       0.20359124 -0.03507706 -0.028644769 -0.24664019
0001f0 4b d6 ca be fb 68 63 be 93 92 7c 3e f8 06 ab 3d
       -0.39616618 -0.22208016 0.24665289 0.083509386
